model/keypoint_classifier/keypoint_classifier.tflite (tflite, 6656 bytes, 6 tensors)

sequential/dense_2/BiasAdd/ReadVariableOp/resource f4 [9]
-0.64665717 -0.27504063 0.987946 0.276351 -1.1822245 -0.22356305 0.3810223 0.9605569
-0.009303453
00000000: 538b 25bf 20d2 8cbe 07ea 7c3f e17d 8d3e
00000010: 2253 97bf b6ed 64be 5b15 c33e 0fe7 753f
00000020: 836d 18bc

sequential/dense_1/BiasAdd/ReadVariableOp/resource f4 [10]
-0.65847 0.18854518 0.8568965 0.49070007 0.25719744 1.0004827 0.4471108 -0.44508547
0.6898765 0.43822628
00000000: 7d91 28bf fd11 413e 925d 5b3f 0a3d fb3e
00000010: 62af 833e d10f 803f b5eb e43e 3ee2 e3be
00000020: bf9b 303f 325f e03e

sequential/dense/BiasAdd/ReadVariableOp/resource f4 [20]
-1.3099375 0.12188594 -1.0571884 0.32254764 0.14599034 -0.36761332 -0.5549584 -0.9477329
-0.6531111 -0.3093844 -0.64308023 -0.25328234 -0.3598854 0.40730298 -0.28140587 -0.5569677
-0.8590993 -0.9929265 0.9716836 0.16117173
00000000: 08ac a7bf 569f f93d f351 87bf f724 a53e
00000010: 7e7e 153e d037 bcbe c111 0ebf a09e 72bf
00000020: 4a32 27bf a267 9ebe e8a0 24bf 39ae 81be
00000030: e642 b8be 048a d03e 6e14 90be 6f95 0ebf
00000040: efed 5bbf 6e30 7ebf 42c0 783f 340a 253e

sequential/dense/MatMul f4 [20, 42]
-0.29761064 0.118609995 -0.8173123 -0.051650066 -0.32526067 0.03593273 -0.2596903 -0.24433951
-0.37172535 -0.19971651 -0.18824138 0.017914144 -0.034962133 -0.013731143 0.091841705 0.10563679
0.13848433 0.14731854 -0.1193521 0.0095146205 0.010450028 -0.20998311 -0.0532643 -0.35208556
-0.2890288 -0.24016082 -0.18764381 -0.01636172 0.08781318 -0.23306961 -0.0056937095 -0.13856319
-0.34448203 0.06255854 -0.10318519 -0.10426536 0.028027961 -0.13362437 -0.10211966 -0.032863647
-0.46046486 0.11681345 0.021923631 -0.095002815 0.50060195 0.6134572 0.2721418 0.26359043
0.24997213 -0.26662683 0.24484833 -0.26661664 -0.80084395 0.30055103 -0.108272254 0.074410655
0.25921002 0.120043434 0.2026966 0.05873149 -1.2145646 0.13824366 -0.13525955 0.013474244
0.16467674 0.08854319 0.08380352 0.057930052 -1.4916991 0.052259076 -0.18538395 -0.04109595
0.06984876 0.06297424 0.07154114 0.022334216 -1.1953659 -0.13073568 -0.17697139 -0.04733799
0.040156625 0.0649302 -0.08064964 0.05516971 0.09016079 0.08369693 1.1253839 -0.7251214
0.70118964 -0.66153896 0.52625483 -0.26469165 0.36318883 0.008771421 0.32243508 -0.13617535
-0.050272748 0.0124078365 -0.23437189 0.18354906 -0.28827354 0.23461065 0.21023403 -0.22044604
-0.03306591 -0.16964054 -0.002945195 -0.036522098 0.069593534 -0.123845756 0.20799111 -0.17314811
-0.0060524577 -0.12771323 0.003291442 -0.049055543 0.17514947 -0.01998098 0.26218984 -0.2599519
0.11354666 0.0015149722 0.13659786 -0.01101152 0.43043998 0.016592072 0.13486841 -0.012530565
0.23866878 0.31142882 0.085297294 0.251268 0.15949105 0.17858341 0.22906438 0.0031011368
0.30281198 -0.06138836 0.023766233 -0.04296505 -0.24065971 0.01148765 -0.39510688 -0.111225486
1.1087706 -0.17368022 0.19858074 0.114836834 -0.14066352 0.19048947 -0.20319697 0.108714595
1.6823488 -0.21016198 0.124870725 0.12156968 -0.27707705 0.20094119 -0.38179198 0.14796875
1.4175099 -0.17966704 0.37638083 0.12443626 -0.41777724 0.21649978 -0.5458542 0.21738502
-0.18016079 -0.23890786 0.2700415 -1.5320905 0.14757605 -0.58819234 0.04462573 -0.43088818
-0.09706549 -0.6868691 0.87995595 -0.2001573 0.4563627 -0.10578065 0.10353264 0.0025986666
0.012165813 -0.070262164 1.2904849 -0.036372453 0.4350637 0.06054127 0.011528368 0.10823931
-0.058159757 0.043370012 1.7559552 0.091036424 -2.342218e-05 0.15414964 -0.3276433 0.15261625
-0.48552078 0.051754996 0.66847336 0.12668331 -0.44250426 0.14497451 -0.7102127 0.2001382
-0.87023014 0.2087155 -0.042799205 0.17339861 -0.19640076 0.24602003 -0.203581 -0.09970775
-0.3073657 -0.22223882 -0.8509524 -0.26095793 0.01435805 0.2522525 0.03678204 0.08563471
0.07299916 0.028465679 0.06344992 0.015290878 -0.05992284 0.23602447 0.026090872 0.05084208
0.22006191 -0.00581625 0.2583134 0.11730632 -0.22669134 0.19698068 0.08843321 0.02057548
0.4064973 -0.13297029 0.5771947 -0.12054558 -0.22333643 0.2234433 0.028739154 0.067527406
0.22490682 0.046147566 0.2888371 0.15178771 -0.07883051 -0.077193975 -0.06317147 0.24751392
00000000: 6c60 98be cce9 f23d 613b 51bf 058f 53bd
00000010: 9188 a6be 332e 133d 21f6 84be 2334 7abe
00000020: c952 bebe 7c82 4cbe 59c2 40be afc0 923c
00000030: 7434 0fbd 97f8 60bc 8117 bc3d 1a58 d83d
00000040: d6ce 0d3e acda 163e e06e f4bd 36e3 1b3c
00000050: 9836 2b3c d005 57be ab2b 5abd 8f44 b4be
00000060: 95fb 93be b8ec 75be b325 40be 0409 86bc
00000070: 66d7 b33d cda9 6ebe 4c92 babb 82e3 0dbe
00000080: f35f b0be b11e 803d c252 d3bd 1489 d5bd
00000090: e59a e53c d4d4 08be 1d24 d1bd 089c 06bd
000000a0: 0dc2 ebbe e43b ef3d 3099 b33c d690 c2bd
000000b0: 7327 003f 880b 1d3f 2c56 8b3e 53f5 863e
000000c0: b2f8 7f3e 5083 88be 85b9 7a3e fa81 88be
000000d0: 1c04 4dbf d3e1 993e d8bd ddbd 9d64 983d
000000e0: 2db7 843e 55d9 f53d b38f 4f3e 6e90 703d
000000f0: da76 9bbf bf8f 0d3e 7b81 0abe 13c3 5c3c
00000100: 05a1 283e 2256 b53d 2ea1 ab3d 1048 6d3d
00000110: ffef bebf 9d0d 563d 4ad5 3dbe 3a54 28bd
00000120: de0c 8f3d a3f8 803d 2984 923d 3ff6 b63c
00000130: c001 99bf 93df 05be fd37 35be 7be5 41bd
00000140: 467b 243d 20fa 843d a32b a5bd a2f9 613d
00000150: 38a6 b83d 4c69 ab3d 940c 903f 8ea1 39bf
00000160: 2a81 333f 9e5a 29bf a3b8 063f aa85 87be
00000170: e3f3 b93e 02b6 0f3c 3616 a53e 8d71 0bbe
00000180: ccea 4dbd 3d4a 4b3c 2fff 6fbe 49f4 3b3e
00000190: 9798 93be c63d 703e 9747 573e 9bbc 61be
000001a0: 1f70 07bd 40b6 2dbe 2c04 41bb 3298 15bd
000001b0: 0e87 8e3d d8a2 fdbd 9ffb 543e bd4d 31be
000001c0: b253 c6bb 42c7 02be 3cb5 573b 77ee 48bd
000001d0: 625a 333e 27af a3bc bf3d 863e 6a18 85be
000001e0: 278b e83d 0892 c63a 4fe0 0b3e aa69 34bc
000001f0: a162 dc3e 19ec 873c f21a 0a3e 004d 4dbc
00000200: 9765 743e 9973 9f3e 59b0 ae3d 33a6 803e
00000210: 9f51 233e 92de 363e da8f 6a3e 713c 4b3b
00000220: 2c0a 9b3e 5c72 7bbd 67b1 c23c 1ffc 2fbd
00000230: 806f 76be b236 3c3c 734b cabe 30ca e3bd
00000240: 32ec 8d3f 3ad9 31be c058 4b3e 932f eb3d
00000250: 190a 10be ac0f 433e de12 50be c2a5 de3d
00000260: 3557 d73f b434 57be 39bc ff3d 86f9 f83d
00000270: 0bdd 8dbe 87c3 4d3e 3d7a c3be 1f85 173e
00000280: f770 b53f a3fa 37be fdb4 c03e 70d8 fe3d
00000290: e6e6 d5be 1eb2 5d3e 1abd 0bbf 2e9a 5e3e
000002a0: 127c 38be 43a4 74be e142 8a3e 8b1b c4bf
000002b0: 2d1e 173e c693 16bf 78c9 363d 609d dcbe
000002c0: 46ca c6bd a7d6 2fbf cb44 613f 09f6 4cbe
000002d0: 5fa8 e93e 87a3 d8bd ec08 d43d 644e 2a3b
000002e0: 1e53 473c 9ce5 8fbd 9c2e a53f 48fb 14bd
000002f0: abc0 de3e 1ffa 773d 7be1 3c3c 92ac dd3d
00000300: ed38 6ebd c1a4 313d 24c3 e03f 4e71 ba3d
00000310: c07a c4b7 67d9 1d3e ddc0 a7be 6f47 1c3e
00000320: 2e96 f8be 0cfd 533d 1221 2b3f 45b9 013e
00000330: eb8f e2be 3374 143e 80d0 35bf 07f1 4c3e
00000340: 67c7 5ebf 84b9 553e 384e 2fbd 688f 313e
00000350: 481d 49be adec 7b3e 8a77 50be 9433 ccbd
00000360: 095f 9dbe 9392 63be 04d8 59bf 479c 85be
00000370: 073e 6b3c 3d27 813e c4a8 163d 4061 af3d
00000380: 9580 953d db30 e93c 08f2 813d 9786 7a3c
00000390: a771 75bd 66b0 713e 86bc d53c c93f 503d
000003a0: e957 613e 3e96 bebb a741 843e 4c3e f03d
000003b0: c621 68be 4eb5 493e 791c b53d e98d a83c
000003c0: 6a20 d03e 5d29 08be 08c3 133f 9ae0 f6bd
000003d0: 4eb2 64be 52ce 643e 606e eb3c cf4b 8a3d
000003e0: f94d 663e 3b05 3d3d 75e2 933e 3d6e 1b3e
000003f0: e471 a1bd e017 9ebd 0b60 81bd 4a74 7d3e

sequential/dense_1/MatMul f4 [10, 20]
-0.35026532 0.34363326 0.3198045 0.33482587 -0.06581212 -0.01731887 -0.40882778 0.8673342
-0.53345 0.17746972 0.70474213 0.4553507 0.27199218 0.41959947 -0.3436353 -0.39424402
-0.39844853 0.21643095 -0.03874118 -0.30532804 1.0073133 0.24673676 0.6744108 -0.009152136
0.06147617 0.70348346 0.43007654 -1.1159952 0.5946776 0.10445542 0.0755073 0.26053342
0.5070572 0.1375265 -0.07142565 0.16594297 1.158976 1.1911823 -0.014084788 0.23825765
-0.19503288 -0.72053003 0.15386751 0.5220882 0.25517917 -0.38429064 0.1329475 -0.2638398
-0.2609298 -0.02819589 -0.22614759 -0.4399826 -0.39577392 0.39389628 1.2478045 0.3599057
0.030244425 -0.30699664 -0.10937516 -0.244984 -0.0135225095 0.07480279 0.041463956 0.10241511
0.013796124 0.38263053 0.87140256 -0.0453612 -0.83432204 -0.86493564 0.587708 0.45456296
0.160569 0.027626107 0.13132438 0.70856434 -0.09394641 -0.111007825 -0.6775169 0.06283883
0.15137349 -1.176942 0.34413952 0.7958806 0.27353263 -0.15100366 0.17454211 -0.14214575
0.25089943 -0.05117255 -0.14415495 0.091281 0.46315086 -0.16146424 -0.23919755 -0.32892877
-0.035390716 -0.17615081 0.20760594 -0.5017462 0.062487483 0.7980264 0.3692622 -0.0064928113
0.46302193 -0.3936375 -0.37218618 0.40575185 -0.45758072 -0.646719 -0.36235484 -0.28893346
-0.23860133 0.20970355 0.033025693 -2.295542 0.38878036 0.65609986 -0.03307993 0.6231262
-0.21924736 0.7432111 0.52416545 0.65716934 0.34337878 -0.11353565 0.44807076 0.044388797
0.851434 0.1723707 0.7000218 0.04393193 0.5598059 0.7607875 -0.26231834 0.25681955
0.01703359 -0.1270641 0.6115533 0.40503523 0.5315685 0.5589425 1.4848905 0.8215797
1.1888673 1.1015339 0.112854555 0.998209 0.26653707 0.037155088 0.41266686 0.6244179
1.2262492 0.5319348 0.7344358 -0.017689453 0.55643904 0.12445854 0.94852215 0.1682024
0.028364576 0.49160302 -0.0626902 0.7504222 0.2891727 0.93953985 -0.03980659 -0.14392185
-0.356185 -0.057949603 -0.081705235 1.2108636 0.6529912 -0.02270387 0.106024206 -0.004685213
1.0598714 -0.44544807 1.0128727 1.0211465 0.84980786 0.06297297 -0.0066827214 -0.10085862
0.0026343644 0.2413506 0.57574123 0.16148807 1.2899933 1.0227736 -0.07768269 -0.8391555
0.34687462 0.04919098 0.14731574 1.5151435 0.42213327 -0.12759697 -0.57616395 0.015081089
00000000: fa55 b3be b3f0 af3e 6abd a33e 4c6e ab3e
00000010: 81c8 86bd 4ee0 8dbc e051 d1be 9d09 5e3f
00000020: 2e90 08bf 9fba 353e fb69 343f ba23 e93e
00000030: 8f42 8b3e bed5 d63e f7f0 afbe 5ada c9be
00000040: 7201 ccbe 13a0 5d3e 12af 1ebd f553 9cbe
00000050: a4ef 803f 90a8 7c3e 30a6 2c3f d7f2 15bc
00000060: 70ce 7b3d 7e17 343f fe32 dc3e eed8 8ebf
00000070: cb3c 183f b9ec d53d 92a3 9a3d a364 853e
00000080: 80ce 013f bfd3 0c3e 9c47 92bd f4ec 293e
00000090: 5359 943f a978 983f e2c3 66bc d0f9 733e
000000a0: b3b6 47be a874 38bf 728f 1d3e 93a7 053f
000000b0: d8a6 823e bec1 c4be 6423 083e 0316 87be
000000c0: 9798 85be 11fb e6bc 3c93 67be 6645 e1be
000000d0: e1a2 cabe c6ac c93e 0fb8 9f3f 8f45 b83e
000000e0: 28c3 f73c aa2e 9dbe 1500 e0bd 16dd 7abe
000000f0: 848d 5dbc 3532 993d 1cd6 293d 03bf d13d
00000100: 2309 623c 26e8 c33e 3d14 5f3f aacc 39bd
00000110: 2196 55bf 6c6c 5dbf 0874 163f 7abc e83e
00000120: 336c 243e 2550 e23c e679 063e 7964 353f
00000130: fa66 c0bd 1258 e3bd bf71 2dbf a5b1 803d
00000140: a701 1b3e 09a6 96bf 0e33 b03e d5be 4b3f
00000150: 780c 8c3e b4a0 1abe 2bbb 323e a88e 11be
00000160: e475 803e 4f9a 51bd 5b9d 13be 88f1 ba3d
00000170: 1c22 ed3e e256 25be 34f0 74be 5a69 a8be
00000180: dbf5 10bd e160 34be a796 543e 7072 00bf
00000190: e0f2 7f3d 754b 4c3f ef0f bd3e a6c1 d4bb
000001a0: 3611 ed3e db8a c9be 308f bebe b5be cf3e
000001b0: 0548 eabe 608f 25bf 9386 b9be 16ef 93be
000001c0: e853 74be 87bc 563e f345 073d 29ea 12c0
000001d0: 380e c73e 29f6 273f d27e 07bd 3385 1f3f
000001e0: 6182 60be 1543 3e3f b52f 063f 403c 283f
000001f0: 58cf af3e 6185 e8bd 8869 e53e 07d1 353d
00000200: 94f7 593f f281 303e a134 333f f8f1 333d
00000210: 714f 0f3f f8c2 423f 974e 86be da7d 833e
00000220: 078a 8b3c 171d 02be c28e 1c3f c760 cf3e
00000230: e014 083f db16 0f3f e410 be3f 0c53 523f
00000240: ce2c 983f 10ff 8c3f 4a20 e73d a08a 7f3f
00000250: 8c77 883e ef2f 183d 1249 d33e dad9 1f3f
00000260: bcf5 9c3f e12c 083f fc03 3c3f 79e9 90bc
00000270: ca72 0e3f 1ee4 fe3d 59d2 723f 403d 2c3e
00000280: d45c e83c 64b3 fb3e b863 80bd ab1b 403f
00000290: 720e 943e af85 703f 3c0c 23bd 4060 13be
000002a0: e15d b6be 905c 6dbd 1355 a7bd 94fd 9a3f
000002b0: 6e2a 273f 77fd b9bc 3823 d93d 6a86 99bb
000002c0: dea9 873f c511 e4be d0a5 813f eeb4 823f
000002d0: 028d 593f f9f7 803d bbfa dabb f78e cebd
000002e0: 4da5 2c3b 9d24 773e c763 133f 215d 253e
000002f0: 801e a53f 3fea 823f 1a18 9fbd e5d2 56bf
00000300: 8d99 b13e 7b7c 493d f0d9 163e 39f0 c13f
00000310: da21 d83e c8a8 02be 7b7f 13bf ac16 773c

sequential/dense_2/MatMul f4 [9, 10]
-0.4652263 -0.8913768 -0.5128403 0.84932446 -0.47822618 -0.6965571 0.8547316 0.34726274
0.6399196 0.6382355 0.8252647 0.33096525 -0.21439669 -1.0493813 0.92328244 0.66874117
0.15393165 -0.09897667 0.31348416 -0.20864807 -0.32511917 -1.571996 0.6280169 -0.94336146
0.12955695 0.8369968 0.61674666 -0.43839717 0.55506706 -1.5232046 -0.04262766 0.63224083
-1.3334113 1.0209588 -0.27605674 -0.64395654 0.20895524 -2.39834 -0.22090372 0.693887
0.8496734 0.3681374 -0.018675122 0.6520118 0.71560466 -0.708868 -0.12518287 0.42671418
-1.3913729 0.24407345 -0.4667406 0.45913887 -0.95943123 -0.38706025 -0.62386864 0.43686458
-1.4757221 0.036253452 0.7020221 -0.95298404 -1.3724139 -0.68380284 0.9833113 0.5559481
-1.3966035 -0.43264806 0.99287254 -1.5001725 -2.3249564 0.42347983 -0.8855823 0.22090535
0.86807114 -1.4474866 -2.2996147 -0.11917372 -1.654868 -2.4339104 0.933298 -0.12440975
-0.37208426 0.6200401 0.9096279 0.26803803 -1.1539279 -1.0322543 -1.4729261 -1.5782048
0.37336737 0.1980476
00000000: 2432 eebe 4531 64bf 8049 03bf 546d 593f
00000010: 10da f4be 9151 32bf b1cf 5a3f 6ccc b13e
00000020: c5d1 233f 6763 233f 8c44 533f 4774 a93e
00000030: ce8a 5bbe 2052 86bf 3d5c 6c3f 9f32 2b3f
00000040: 42a0 1d3e 48b4 cabd ff80 a03e d7a7 55be
00000050: 0576 a6be 2a37 c9bf b7c5 203f 2380 71bf
00000060: 94aa 043e 6c45 563f 1ce3 1d3f 9875 e0be
00000070: e018 0e3f 5ef8 c2bf 579a 2ebd 89da 213f
00000080: 39ad aabf c7ae 823f 4f57 8dbe 56da 24bf
00000090: 5df8 553e 677e 19c0 9634 62be 94a2 313f
000000a0: 3284 593f 817c bc3e 92fc 98bc 3fea 263f
000000b0: de31 373f 6078 35bf f02f 00be 487a da3e
000000c0: 8218 b2bf 64ee 793e a0f8 eebe 4014 eb3e
000000d0: 499d 75bf c32c c6be dbb5 1fbf b7ac df3e
000000e0: 76e4 bcbf 807e 143d b8b7 333f c3f6 73bf
000000f0: 42ab afbf b40d 2fbf 4aba 7b3f 9d52 0e3f
00000100: e7c3 b2bf 0c84 ddbe e52c 7e3f a705 c0bf
00000110: 16cc 14c0 59d2 d83e 86b5 62bf 0335 623e
00000120: e939 5e3f 3e47 b9bf e32c 13c0 5a11 f4bd
00000130: b7d2 d3bf 30c5 1bc0 9eec 6e3f 8aca febd
00000140: d481 bebe f3ba 1e3f 60dd 683f 483c 893e
00000150: e9b3 93bf e920 84bf d888 bcbf 9d02 cabf
00000160: 022a bf3e fdcc 4a3e
